agent_weights.npy (npy, 1360 bytes, 1 tensors)

array f8 [154]
0	0xbfe33cf52a68238b	-0.6011911228425658
1	0x3fb17f1a059dc3be	0.06834566723934096
2	0x3fbf0144bd5dbe4a	0.12111310599515793
3	0xbfa7cf047006437c	-0.046501291918622706
4	0xbfd179b65e514d03	-0.2730537339277392
5	0xbfd29e32a21345c0	-0.29090562656082497
6	0x3f6f47e58a424a96	0.00381846267743786
7	0xbfd837fbbdca6b7e	-0.37841695341347037
8	0x3fe3e2f280971f22	0.6214535247354187
9	0xbff02a6b57c6f26a	-1.0103562763971703
10	0x3fd27a84bfe5ce16	0.28872793903357896
11	0xbfe1b4802fe4ed26	-0.5532837806162305
12	0x3fde69772503cded	0.47518709768993866
13	0xbfc72cc3a43f33e8	-0.18105359573237867
14	0xbfd2c3c025fb965c	-0.2931976672101422
15	0xbfde3b27dd03ae20	-0.47236057837901235
16	0x3fda425453ed2e73	0.4102984256357793
17	0xbfc34cbd28e646b3	-0.1507793855385465
18	0xbfda110d8f187e18	-0.4072908303660099
19	0xbfe87bb49ddef582	-0.7651007731835053
20	0xbf9900d16f9fd21a	-0.024417183340078898
21	0xbfcc833ce028ee76	-0.22275505967433035
22	0xbfe37263bddb4a77	-0.6077135761391464
23	0xbfb9f3ee5fb79af6	-0.10137834393354325
24	0x3fd52fa51b15033b	0.33103301663145474
25	0x3fb2bf2e879e1728	0.07322970210051649
26	0xbfb248a65bb8ab6f	-0.07142104853907737
27	0xbfe0120a3d7382c8	-0.5022021484583883
28	0xbfe1d72fc281cf1e	-0.5575178908315797
29	0x3fbea1c9eb346c16	0.11965620033554134
30	0xbfeec8a386572dee	-0.9619920371855508
31	0xbfcc3c9251a9b450	-0.2205984972710291
32	0x3fce9f9fc22b6970	0.23924633961616903
33	0xbf9b4c890d3a5d5a	-0.026659146721241235
34	0xbf6762acfbf48fd0	-0.0028546694371857986
35	0xbfd83661cd7ee243	-0.37831921642240135
36	0xbfd3535af774ab11	-0.3019626061019816
37	0xbff2e409899f6ee9	-1.1806731582536776
38	0xbfde57f00895a226	-0.4741172870476781
39	0xbfc84ece505a83ca	-0.1899049656249459
40	0x3feb9667cf770d2e	0.8621100475360544
41	0x3fb5967219253d42	0.08432686914351442
42	0x3fdbfd842b40a81e	0.43734840606578185
43	0x3feb945836a530dd	0.8618584697046817
44	0xbfe6f242eeafdb48	-0.7170729314665119
45	0xbfd2cdbf3eeed50a	-0.29380780359072445
46	0xbfa4b269286c607d	-0.04042366617631019
47	0xbfd8d53a403bc700	-0.3880143763809514
48	0x3fd88ef71436a7a6	0.38372590040182286
49	0x3fc9d2533d0922de	0.2017311141992399
50	0x3fc1181bb8c0546c	0.13354822655734055
51	0xbfed3d23d80d0560	-0.9137133807891296
52	0x3fc921d90ff8f09c	0.19634545593169583
53	0xbfd00bf2d30f9e5a	-0.2507292805807758
54	0xbfd429cd22ddff92	-0.31505134968755855
55	0xbfdd5c8530d358b0	-0.45877198951837794
56	0x3fcead01e981fe8a	0.23965476896045274
57	0x3fc325f6ae49e426	0.1495960570353258
58	0x3fd0252142025362	0.2522662300701112
59	0x3fdc640a5a29b1ee	0.4436059837815084
60	0xbfe79749f46896ef	-0.7372178815464546
61	0x3ff78e5d1b6add85	1.4722567625993588
62	0x3fc404eb940569b6	0.15640015342326102
63	0xbf7a698e61a9f5f0	-0.006448322465641962
64	0xbf809e3e6d0e8a45	-0.008114326193951924
65	0x3fbbe9cd13ccbafd	0.10903627141372492
66	0xbfd3f003b2e127b3	-0.311524319350265
67	0xbfe9c041d454d5d6	-0.8047188899133129
68	0xbfd9e270da61e1d3	-0.40444585157777374
69	0xbfdcb191ad258f8b	-0.4483379546056702
70	0xbfd24165bfcade9d	-0.28524154405338625
71	0xbfc37f0f1886670a	-0.15231503198156587
72	0xbfe40c001b225dd3	-0.6264648942914682
73	0xbfd93bba8dcab2ba	-0.3942705521283575
74	0x3fc5cc66ec32d2de	0.17030035527354576
75	0x3fe5c6bea421dbd8	0.680510826655218
76	0xbfe43306b320b098	-0.6312287806117807
77	0xbfdd899453edd74d	-0.4615221805209913
78	0x3fe162d3d9c8a9fe	0.5433139089194012
79	0x3fc99f304029b230	0.2001705468459405
80	0xbfb46c2115f200fd	-0.07977492128157233
81	0x3fd9d634b4a83bf5	0.4036990894537092
82	0xbfabd5f6774d2563	-0.05436678129496888
83	0xbfd2a3b7abdf8d25	-0.2912425211381609
84	0x3fdacd484880ff60	0.41877944069346107
85	0x3f7ca451c97dea73	0.006992644768497247
86	0xbfb7c78786ab05d8	-0.09288832700533278
87	0x3f8925f180729dae	0.012279402477658543
88	0x3fca142308c3436e	0.20373952796810663
89	0x3fe0e59c2ee4cd74	0.5280285755056142
90	0xbfea7eb1bb825f3d	-0.8279656088152262
91	0x3ff16c21f8d84241	1.0888995857714152
92	0x3fdfa2058ceaffb3	0.4942640186454767
93	0x3ff1b03092f18540	1.105515073774157
94	0xbfc278f0616e6b8e	-0.1443157649744901
95	0x3faa298cf17f5018	0.051098255614903276
96	0x3fbee7a760b101da	0.12072225676184392
97	0x3f6751029d4b1c70	0.0028462458670648824
98	0x3fe0e2f3ffb313e2	0.5277042383319179
99	0xbf981032eb13c182	-0.023499293897601976
100	0xbfec1798f3aea7a2	-0.8778805503290992
101	0x3fe1a2f86ecf6871	0.5511438526402924
102	0x3fa780700e3420b3	0.045901777013626875
103	0xbfc0b6dcfeb334f9	-0.13058054386639364
104	0x3feb7543fd0d80ce	0.8580646459995707
105	0x3fd2c1f3aaaad961	0.2930878798173549
106	0x3fe9d961592dfd1b	0.8077856771268758
107	0xbfe27e2246c5fc9e	-0.5778972036640828
108	0x3fe034f5a15c4629	0.506464781911011
109	0x3fddae0a9622de20	0.4637476411985251
110	0x3fbac9aa1b7489d0	0.10463965578359269
111	0x3fa292309914c8b0	0.03627158993403279
112	0xbfe5348d3f3ab91d	-0.6626650080632178
113	0x3fe42a0832717262	0.6301308617799573
114	0xbff1e12cf344c6ae	-1.1174745085412883
115	0xbfd40f321af6d186	-0.3134274733850123
116	0xbfc0ee133b5e89d9	-0.1322654762162319
117	0x3fc33aa5d8c15b96	0.15022728999857965
118	0xbfd6a60f3b50dacb	-0.35388546745836597
119	0xbfe43e28b0a8bf0b	-0.632587761914665
120	0x3f81eba119a9d7f8	0.008750208469091789
121	0x3fe83dd3fd2179f9	0.7575473731956769
122	0x3ff20235edad5950	1.1255397114051284
123	0x3ff2d81d23dcdcdf	1.1777621651543126
124	0xbfef35c8c36f3106	-0.9753154580189694
125	0x3fc548c9294bd5ba	0.1662837459222553
126	0xbf9300114af5e552	-0.01855494518301743
127	0xbfeb696761a310fa	-0.856616678902838
128	0xbfc996de58308796	-0.19991664224749844
129	0xbfd2c1abfe48374a	-0.2930707915519305
130	0x3fe9e35b72d1f960	0.8090035669882063
131	0xbfd24e46bb707ede	-0.2860276060546151
132	0xbfcbd05e2195ebfd	-0.21729637756274647
133	0x3fe229a80333ded5	0.5675849974204207
134	0xbfbf656570107e22	-0.12264093385646693
135	0x3fec3594c9269463	0.8815406731342929
136	0x3fe0ee5c5b9cd866	0.5290967740354631
137	0xbfd4d3046632ef5b	-0.3253794668232694
138	0xbff68d533058a3e7	-1.4095031631970814
139	0x3ff1b17f8be956d1	1.1058345284740663
140	0xbfe30297f61957d6	-0.5940666014309908
141	0x3fb4292d663bcae5	0.07875331636368406
142	0xbff1807ae49acf2a	-1.0938671998855605
143	0xbfda2fa02e35640a	-0.4091568423514792
144	0x3fd3ca7f793c15ba	0.3092344936306649
145	0xbfe563c6271e0656	-0.6684294475564438
146	0xbfe9c04553cda363	-0.8047205578596784
147	0x3fd7839a4e36b66b	0.36740739477213563
148	0xbfb1f1fd2f635a79	-0.07009870917259232
149	0x3fc57aa54375dc15	0.16780534547771767
150	0x3fc934db172be08d	0.1969255316869333
151	0xbfc7be66e57f3243	-0.18549810605908776
152	0x3f80a7e4248e021e	0.008132727017938154
153	0x3fd1d45206ebda3e	0.2785840098944482
