agent_weights.npy (npy, 1360 bytes, 1 tensors)

array f8 [154]
00000000: 321a 5a70 49cf d93f 5a6e 6ddd 9dbd d1bf
00000010: 0a19 7a8f 8037 8abf e03c b2f3 ecca cf3f
00000020: 4be9 a6e0 1320 cb3f a7b1 0de5 3caf b03f
00000030: 55dc 1ee2 e81b c03f f679 348e 3d21 88bf
00000040: 18ce cfb8 5d1d cebf 228b 5b1a ef0f d3bf
00000050: 03bc 34d3 5a43 cf3f f3da 858b cd8f aa3f
00000060: 6663 b3fd 12b8 aabf 928d 0cad 34e6 d4bf
00000070: 8f1c 60c8 31b9 b13f 0355 c253 ebed bc3f
00000080: 1bf9 c95a b9fa aebf 362b a62a 19df e1bf
00000090: b6d9 526f dad9 92bf 96e1 2eb4 8512 d2bf
000000a0: f03a 6f98 bb58 a63f e041 1f7d 9bca aebf
000000b0: 7dff fe78 7544 d43f 7aa6 590c 5a9b a0bf
000000c0: fcce e52b 2934 c33f 62b2 bcf7 4757 ddbf
000000d0: 3b17 011f 8ac0 d83f d63f c389 89cf d63f
000000e0: 561d ad21 c897 88bf e971 44b8 4026 d53f
000000f0: 5ea3 cea9 4e98 dabf dd10 dc0f ed1d ae3f
00000100: a569 3d92 fdd2 c7bf a8bf b089 0597 ac3f
00000110: 7d6b b488 a53a dc3f f97e 4c1f 3531 b7bf
00000120: 3b0b f60c ee35 af3f 1846 987a 76d2 d93f
00000130: 4b74 8550 6f65 d8bf 3c43 2003 0972 d33f
00000140: 10d6 1ef1 be2b c73f 0141 d566 8ce2 d23f
00000150: b37b e0ad 952b d7bf df28 74da 23de c3bf
00000160: addf 6b98 4754 a4bf 5aa1 f1ef 3a43 cbbf
00000170: e0fe 2625 4caf d03f d6c0 fc88 329b acbf
00000180: 8b29 7cd2 02d0 ddbf dddf 2ed7 b3ec e43f
00000190: 6309 1ee2 2225 90bf 1577 d175 7753 ce3f
000001a0: 13a6 6c2a fadc d0bf 72d0 8234 9daf 9abf
000001b0: 3bf6 848c c1ab dfbf 2048 7c1c a284 683f
000001c0: eed2 f047 c57c b43f 933a 5eb9 ec9b bf3f
000001d0: e89e fafd 739d 7c3f b0e5 db0f 4d17 d83f
000001e0: 8d7d f821 418c c43f ff60 8e18 f2cf c63f
000001f0: c12a 0e59 a6cc d0bf 3af7 8881 9d99 d03f
00000200: 6da0 a99f 6190 cfbf 3456 97e1 99e8 97bf
00000210: 1d48 2429 716b b6bf f479 37c3 620f d6bf
00000220: 166f ff4c af71 bbbf 12ef cbb3 9923 c0bf
00000230: 5a6a 408b 0ef5 e0bf 4611 d942 9696 d3bf
00000240: 9d1e b521 200a e6bf 4a72 6db0 ade3 b33f
00000250: 0bfb 0ae8 531d dc3f e8ae 34be 83aa d5bf
00000260: 8035 e82f 64b4 783f d356 f2d0 567d d0bf
00000270: 6e56 7e76 0beb cdbf 7a35 4759 4b53 d73f
00000280: a580 23b9 591b d03f a8a4 3121 371f d9bf
00000290: cda6 965f 206e d23f 9c4d 428c d288 b13f
000002a0: 1631 b796 b9b3 d3bf 1aaf 77fa dbcd 523f
000002b0: 953d 4eca b578 d93f eabd ffe6 80d5 e03f
000002c0: a2ec a872 5398 ad3f c6ed 8d0c 9926 de3f
000002d0: 8a17 826e 42ee d4bf 02a0 0240 80ec dd3f
000002e0: da21 bc8d cdb1 a9bf dedc 8bda 8146 c5bf
000002f0: d07f b0cd 7859 a9bf f080 b954 956a b73f
00000300: 6de7 a31c 3253 c2bf 4a15 dd47 7abb c93f
00000310: 23d4 8266 e0d1 d93f 33ab 69cc 4e98 c9bf
00000320: 1dc5 0e73 2d93 ce3f 5d25 042d 0ab8 c2bf
00000330: e5ff 2940 c8c1 debf d069 aabf e7de cb3f
00000340: 1155 0e3d 8e13 b93f 7298 9236 e640 d43f
00000350: 5dcd 33c4 6e34 bdbf 209f 6020 5abd c0bf
00000360: bdab 0755 e433 ca3f 9c80 0e91 9627 a63f
00000370: bae3 3bcc 721d b13f 1790 1ce7 07b0 e1bf
00000380: 65d6 997d 660d dcbf 9285 8f1c 93c2 c0bf
00000390: 3360 4b12 b1c7 763f 902f 9a28 3bb6 d53f
000003a0: 6325 303d 6f1e dabf eb15 50a3 bf69 bf3f
000003b0: b694 01f0 3def d7bf 43b7 10f5 a991 8e3f
000003c0: dfa8 9c53 c4c0 b2bf 78b7 6b96 cd64 acbf
000003d0: 8582 6cb2 ce72 d6bf e3eb ee0a 30bf 89bf
000003e0: d3ab a54b 993a 833f 18f9 a0c9 e1af c13f
000003f0: 9ea6 80f0 1968 d43f 0660 eb1d 5d4b d73f
00000400: 6ab8 8df6 685e c23f 0a08 0179 240c dcbf
00000410: b43e f24f aabf d13f 6283 dd5f 595c d53f
00000420: 6b7e 9421 0a24 c7bf 74d1 8184 fc0e d4bf
00000430: b16b cb53 e34b d03f 93c3 6b51 6848 d4bf
00000440: ed96 99bc 3d98 8fbf 7a8d dba4 0db8 bd3f
00000450: 40da 7fb3 03b1 73bf c642 2d1d 22ef 99bf
00000460: 9217 a4d9 c002 cdbf b241 17e1 9cfa b93f
00000470: aa88 5a0a ab04 b63f 971e ab97 f99b c43f
00000480: a1c8 daaa 1b21 c3bf 0377 04a2 61dd ee3f
00000490: fd3d 216e 1c14 9cbf 3aef dceb 748c aebf
000004a0: 68af b089 34f9 ebbf f026 e50a 25b2 c6bf
000004b0: 7255 e960 fc62 d13f 0203 f133 4a48 c73f
000004c0: 50f1 6a49 0d8d b3bf 3ceb e058 b03b d2bf
0.4032767865359431 -0.2771982824685658 -0.012801174524849763 0.24838029765348946 0.2119164320882397 0.065173917695296 0.12585173646013695 -0.011782151129009027
-0.23527118228922528 -0.2978475339315755 0.24424300492088954 0.05187837913665829 -0.052185624570205744 -0.32655064486808627 0.06923209325769818 0.11300535960102213
-0.060506622631679906 -0.5584836800565884 -0.018409169239669253 -0.28238051029213673 0.04364572749874707 -0.060139521621412007 0.31667839828514116 -0.03243523979911074
0.15002932208482622 -0.45845221703601713 0.38675168063888393 0.35641706899059267 -0.012008250739781328 0.33045976633891755 -0.41554609854443025 0.058822067438116334
-0.1861264194547633 0.05583970361510576 0.4410795054442856 -0.09059459699755824 0.06095832737175618 0.40347063038015696 -0.38119109023484005 0.3038351564910504
0.18102251790485058 0.2950774196842901 -0.36203519802250667 -0.1552166763943381 -0.03970550284969874 -0.21298920360573953 0.26069930675656217 -0.05587156221588578
-0.4658209853665986 0.6538943484110821 -0.01576666360006963 0.23692219975321707 -0.2634873785305853 -0.02606053956033389 -0.4948581573733894 0.0029929319606561006
0.08002884870877455 0.12347297216022417 0.006986096471940796 0.37642218159416085 0.16053022536014475 0.17822099875480288 -0.2624908322983793 0.2593759312620595
-0.2465936688997802 -0.023348240274421353 -0.08757693533360152 -0.3446890741742259 -0.10720344190434292 -0.12608643798000024 -0.5299141616590746 -0.30606609848134203
-0.6887360246991708 0.07769284779846788 0.43929002438010006 -0.33853238653931195 0.0060314096031225395 -0.25765009312577297 -0.23373549733939875 0.3644588825089482
0.25166934089612375 -0.3925302337798464 0.28797158560574304 0.06849399494449532 -0.30784454077071766 0.0011477134920551747 0.39799256092461494 0.5260624419879012
0.057802779909672766 0.4711058256723074 -0.32704220573247567 0.4675598740673196 -0.05018465380823374 -0.16621421023567157 -0.04951074133737132 0.0914700824591852
-0.14316393278550824 0.20103386410679952 0.40343484888882325 -0.1999605653866979 0.23886650198031925 -0.14624144743019488 -0.4805775286295087 0.21774002894092215
0.09795464506745001 0.3164611370979237 -0.11408130922409528 -0.1307785661785994 0.2047086157975552 0.04327078362189349 0.06685559736423743 -0.552738143338959
-0.4383178927012977 -0.13093794722139457 0.0055615345815667626 0.3392475029474946 -0.4081075761356116 0.12270734536294696 -0.3739771694002444 0.014926269332217528
-0.07325388947780052 -0.055456566440496624 -0.3507572882099697 -0.012571692784936367 0.009389112111156372 0.1381799921527509 0.3188538406999245 0.3639748375112507
0.1435061649203278 -0.4382411176376314 0.2773233204579626 0.333761542910045 -0.18078734054232667 -0.3134146970762892 0.25463183577601983 -0.3169194026113981
-0.015427095716585149 0.1160896804317896 -0.004807486016935203 -0.025326283484278254 -0.22664652468682484 0.10148029799825656 0.08600872996115308 0.16100997834859207
-0.14944787828932696 0.9645240940478462 -0.027420467588227016 -0.05966534976184197 -0.8741705598126659 -0.1773115447234015 0.27166661705026407 0.18189361129955023
-0.07637103121209532 -0.2848931186633086
