agent_weights.npy (npy, 1360 bytes, 1 tensors)

array f8 [154]
0	0xbfe7b9048bbd3a20	-0.7413351754456166
1	0xbfe1fa314709bfca	-0.5617910754644921
2	0x3f915e249075accb	0.01696068889343109
3	0x3fb06d6c2b25284e	0.06416965535496041
4	0xbf96cad076c3b94d	-0.022258050202191005
5	0xbfdc0b0055abf8b5	-0.43817146650679756
6	0x3ffe04c11f92f848	1.8761607392657584
7	0x3fe0933f3b52ac4e	0.5179744871760563
8	0x3fed0a0f89b72576	0.9074781121973234
9	0x3fe50dfa87e28d78	0.6579563764575331
10	0x3feaa948950c56da	0.8331644927117978
11	0xbf89bb36414ce88b	-0.01256410967618062
12	0x3fe2823dbdaa178e	0.5783985809691659
13	0x3fdad7555de69223	0.4193929116247849
14	0x3fd9a16cfb1130d3	0.40047764318729867
15	0xbfe16a48469f74fa	-0.544223916945753
16	0x3fd7c817efc73141	0.3715877381880724
17	0x3fd3900011d5de88	0.3056640791105356
18	0x3fcb9954f18d7b7b	0.2156168155151724
19	0x3fd46c8e066aeeeb	0.31912565829018885
20	0x3fbd9aef84780865	0.11564537986854047
21	0x3fdcd43165194e0d	0.45045122979101465
22	0xbf9b090eecfcaca0	-0.026401742186106802
23	0xbfd1a7d2f35c262a	-0.27586816564198335
24	0xbfd39c774cb87b5e	-0.30642492763757
25	0x3fc62b7b52887b72	0.173201957034475
26	0xbfddbaf0baecf80d	-0.46453493360957127
27	0xbfece20909cccf1d	-0.902592200413412
28	0x3fae486c9f7d59e2	0.059146303624107124
29	0xbff2824e7cb9d162	-1.156813132486683
30	0xbfe844d29c90bbc6	-0.7584012086789407
31	0xbfcff171d5e8a090	-0.24955580658684484
32	0xbfc9907ea858e773	-0.19972213001329528
33	0x3fc0838886053b7a	0.12901407760588396
34	0x3f852ba74ef634b0	0.01033716878625976
35	0x3fa6c3b97c59003e	0.044462009839208325
36	0x3fdb54567e1bd4c2	0.42702257457069603
37	0x3fb40db0d5133623	0.0783339042856928
38	0x3feedaf017cf172e	0.9642258133905892
39	0x3fe533db1eeab7d6	0.6625800708623
40	0x3fd16d8896b1aa16	0.2723103973027333
41	0xbfc3a60060279729	-0.15350346274424823
42	0x3fe0b0ee7380440d	0.5215980773811012
43	0xbfdec96ee58f8a0a	-0.4810445062450134
44	0xbff2adbf49a43a0e	-1.1674187542554395
45	0xbfd2008fd9920d8a	-0.2812842964851475
46	0xbfc0ab5dcc0e37ca	-0.1302296873440681
47	0xbfdaed5b82305038	-0.4207371493696459
48	0xbf9f7dd3c424d055	-0.030753430220287054
49	0x3fbd96e2f2ad5442	0.11558359551175193
50	0xbfeffedcfa44e4db	-0.9998612297123616
51	0x3fe583a7a78e5d8f	0.6723211548405049
52	0x3fe23f233253e02d	0.5702072127305705
53	0xbfa91acd456da96a	-0.049032606816427585
54	0x3fb9db98620a6c4d	0.10100700753757615
55	0xbfd346f49a9f3096	-0.30120577907360635
56	0xbfe3c6e88d156654	-0.6180308108843726
57	0x3facef05962782ba	0.056511091784846326
58	0xbfbc09bf34a0a462	-0.10952372584201123
59	0xbfc5d5cad5d614cc	-0.17058692399237996
60	0xbfdca488946394ca	-0.4475423287497732
61	0x3fd1be163129767f	0.27722697068188745
62	0x3fe0866f7e6f83da	0.5164105863042281
63	0xbfd6b3cdadfb7862	-0.35472433081111465
64	0x3feedf3ac08879ca	0.9647496948635361
65	0x3fc99b3c374709c0	0.20004990290733637
66	0x3fc41a2b689cb9ca	0.15704863174455702
67	0xbfc406b9abf983ca	-0.1564552392692618
68	0x3feb4256f1e257cd	0.8518480991649483
69	0xbfe552fe3cd652e6	-0.6663809955813036
70	0xbfb795f0365d4340	-0.09213162734273528
71	0x3fdd7fcfd0da09da	0.4609260119979389
72	0x3ff1bfc7355322c0	1.109320839214135
73	0x3fd6094108f47945	0.34431482195386237
74	0x3fcd9926da86b36d	0.23123632116530804
75	0x3ff08049ae0833ef	1.031320266544977
76	0xbf9e6b7e40aed4b3	-0.029706928918774533
77	0x3fbabedb6b888c90	0.10447474837615034
78	0x3fe6f2c19768d29d	0.7171333272186363
79	0x3fa23f8b76caad92	0.0356410582074559
80	0x3fd0e4e92fd1e5dc	0.26397161168969574
81	0x3fe78360ae00906a	0.734787311409048
82	0x3fda84c71a6ca9b2	0.4143541105319414
83	0xbfc16e5bea204ed6	-0.13618039066260818
84	0x3fd8cb7627d7293a	0.3874183072154157
85	0x3fe281420bee15b2	0.5782785637863326
86	0x3fbf3fe3572686a6	0.12206860425660668
87	0xbfe7bd347c269bd6	-0.7418463158436406
88	0x3ff1ca0d933f8351	1.1118293525580223
89	0x3fe245cb8de1a61b	0.5710199137803927
90	0xbfcb17d797bc160b	-0.21166510495110943
91	0xbfe1e54d2372f355	-0.5592408840526369
92	0xbfd7a8d22da8b986	-0.36967901667494407
93	0x3fe1fe02bd53a38b	0.5622571656978023
94	0x3fd7ca7597e27c25	0.37173213798991106
95	0x3fd8d72994009aa2	0.38813247159343167
96	0x3fc98c91816709cd	0.19960230654221647
97	0xbfe5e342097508de	-0.6839914498052868
98	0x3fcd8fd9d4f92b03	0.2309524812611344
99	0xbff2c543ff7c6367	-1.1731605510633132
100	0xc001242e93c10b62	-2.1426669638907905
101	0xbfaca41242e476d6	-0.05593926493223271
102	0x3fe7f1e74c34e002	0.7482792366417927
103	0x3fcbc31866dbe763	0.2168913366547783
104	0xbfe0bd987c46c2a0	-0.523143999793394
105	0xbfa15fd1baa12e83	-0.03393416789239458
106	0xbfd75690a6dbc7e8	-0.3646585111119962
107	0xbfde8b4cb4693c85	-0.47725217455167296
108	0xbf5247865cdf313a	-0.0011156856667070129
109	0x3fc49fb6e49192f7	0.16112409744814446
110	0x3fb55c121f677448	0.08343613878919698
111	0xbff0a1ce74d499e3	-1.0395035327616078
112	0x3fead2c046c5a4a2	0.8382264501825782
113	0x3fc27465fc5e9c6e	0.14417719671948553
114	0xbfeed3e1df469533	-0.9633645401815215
115	0x3fdc22771207637d	0.4396035839140991
116	0xbfc2033d7c0817fb	-0.14072388225775953
117	0xbfdad41f887f439d	-0.41919697122380645
118	0xbfe890c3d467eb6a	-0.7676715038827358
119	0x3ff6d69cf6e831f0	1.4273957867436557
120	0xbfe63647efe73cb0	-0.6941260991678941
121	0xbfc1be857a2098d1	-0.1386267515492308
122	0xbf9d9ba846150e70	-0.028914098050576376
123	0x3ff0e5b27121f541	1.0560783786052783
124	0x3fb9b1ef3e90f090	0.10037131574148561
125	0x3fc00e7f553e2098	0.1254424253677413
126	0xbfde9ec52e40d8cb	-0.4784405662243329
127	0x3fdacee07197ebcb	0.4188767537413553
128	0xbfe6bf0b9cb99b26	-0.7108209668193453
129	0x3fa9e3cb9718c1f3	0.05056606502001051
130	0xbfa01ed1381617a0	-0.03148511705062096
131	0x3fdb5106b4d087a0	0.426820446564415
132	0x3fc94adef81fc4de	0.19759738078531702
133	0xbf9946157c5a66f1	-0.024681411471283835
134	0x3fd30e79436bb863	0.2977584036260678
135	0x3f894f2d76d557b6	0.012358050526625291
136	0xbfd0a1d2e928a58e	-0.25987694520389304
137	0x3ff07c36c1e75fd2	1.0303256582610527
138	0xbfe5f073d5ef9675	-0.6856021097598403
139	0x3fdebd1eb5f9e478	0.4802929665671125
140	0xbfcf6dc3253a9bdb	-0.24553717916316384
141	0xbfd0bb69e83e19b9	-0.2614388244623132
142	0xbf93f36f83bfacea	-0.019483320633224922
143	0x3ff1449c26bcf90e	1.079250480004308
144	0xbfd3c03e50f4316c	-0.3086086073460794
145	0x3fe333d835a0520a	0.6000786826503497
146	0xbfe80b3ce5dfaf2e	-0.7513718118402488
147	0xbfbd92c78b5287cd	-0.1155209269659558
148	0xbfa0c050a5a2f8b9	-0.03271724721843001
149	0x3fd6620621d3b979	0.3497329073278688
150	0xbff1c2980e5b899d	-1.1100082932322046
151	0xbfe4ea4e4165ae87	-0.6536017682351066
152	0x3fa73a7ee232928e	0.04536816130829378
153	0x3fe4029f3fc320ed	0.6253200764995462
